Using cuda
====================================================================================================
Layer (type:depth-idx)                             Output Shape              Param #
====================================================================================================
Transformer                                        [1, 5000, 1]              --
├─Linear: 1-1                                      [1, 5000, 64]             3,584
├─Time2Vec: 1-2                                    [1, 5000, 72]             --
│    └─Linear: 2-1                                 [5000, 8]                 40
├─Linear: 1-3                                      [1, 5000, 64]             (recursive)
├─Time2Vec: 1-4                                    [1, 5000, 72]             (recursive)
│    └─Linear: 2-2                                 [5000, 8]                 (recursive)
├─Transformer: 1-5                                 [1, 5000, 72]             --
│    └─TransformerEncoder: 2-3                     [1, 5000, 72]             --
│    │    └─ModuleList: 3-1                        --                        61,328
│    │    └─LayerNorm: 3-2                         [1, 5000, 72]             144
│    └─TransformerDecoder: 2-4                     [1, 5000, 72]             --
│    │    └─ModuleList: 3-3                        --                        310,992
│    │    └─LayerNorm: 3-4                         [1, 5000, 72]             144
├─Sequential: 1-6                                  [1, 5000, 1]              --
│    └─Linear: 2-5                                 [1, 5000, 36]             2,628
│    └─Dropout: 2-6                                [1, 5000, 36]             --
│    └─ReLU: 2-7                                   [1, 5000, 36]             --
│    └─Linear: 2-8                                 [1, 5000, 1]              37
├─Identity: 1-7                                    [1, 5000, 1]              --
====================================================================================================
Total params: 378,897
Trainable params: 378,897
Non-trainable params: 0
Total mult-adds (M): 0.47
====================================================================================================
Input size (MB): 2.20
Forward/backward pass size (MB): 97.48
Params size (MB): 0.26
Estimated Total Size (MB): 99.94
…
