Using cuda
====================================================================================================
Layer (type:depth-idx)                             Output Shape              Param #
====================================================================================================
Transformer                                        [1, 200, 1]               --
├─Linear: 1-1                                      [1, 200, 64]              320
├─Time2Vec: 1-2                                    [1, 200, 68]              --
│    └─Linear: 2-1                                 [200, 4]                  8
├─Linear: 1-3                                      [1, 200, 64]              (recursive)
├─Time2Vec: 1-4                                    [1, 200, 68]              (recursive)
│    └─Linear: 2-2                                 [200, 4]                  (recursive)
├─Transformer: 1-5                                 [1, 200, 68]              --
│    └─TransformerEncoder: 2-3                     [1, 200, 68]              --
│    │    └─ModuleList: 3-1                        --                        55,752
│    │    └─LayerNorm: 3-2                         [1, 200, 68]              136
│    └─TransformerDecoder: 2-4                     [1, 200, 68]              --
│    │    └─ModuleList: 3-3                        --                        93,560
│    │    └─LayerNorm: 3-4                         [1, 200, 68]              136
├─Sequential: 1-6                                  [1, 200, 1]               --
│    └─Linear: 2-5                                 [1, 200, 34]              2,346
│    └─Dropout: 2-6                                [1, 200, 34]              --
│    └─ReLU: 2-7                                   [1, 200, 34]              --
│    └─Linear: 2-8                                 [1, 200, 1]               35
├─Identity: 1-7                                    [1, 200, 1]               --
====================================================================================================
Total params: 152,293
Trainable params: 152,293
Non-trainable params: 0
Total mult-adds (M): 0.02
====================================================================================================
Input size (MB): 0.01
Forward/backward pass size (MB): 1.57
Params size (MB): 0.09
Estimated Total Size (MB): 1.66
…
