====================================================================================================
Layer (type:depth-idx)                             Output Shape              Param #
====================================================================================================
Transformer                                        [1, 5000, 1]              --
├─Linear: 1-1                                      [1, 5000, 64]             3,584
├─Time2Vec: 1-2                                    [1, 5000, 80]             --
│    └─Linear: 2-1                                 [5000, 16]                80
├─Linear: 1-3                                      [1, 5000, 64]             (recursive)
├─Time2Vec: 1-4                                    [1, 5000, 80]             (recursive)
│    └─Linear: 2-2                                 [5000, 16]                (recursive)
├─Transformer: 1-5                                 [1, 5000, 80]             --
│    └─TransformerEncoder: 2-3                     [1, 5000, 80]             --
│    │    └─ModuleList: 3-1                        --                        36,624
│    │    └─LayerNorm: 3-2                         [1, 5000, 80]             160
│    └─TransformerDecoder: 2-4                     [1, 5000, 80]             --
│    │    └─ModuleList: 3-3                        --                        376,224
│    │    └─LayerNorm: 3-4                         [1, 5000, 80]             160
├─Sequential: 1-6                                  [1, 5000, 1]              --
│    └─Linear: 2-5                                 [1, 5000, 40]             3,240
│    └─Dropout: 2-6                                [1, 5000, 40]             --
│    └─ReLU: 2-7                                   [1, 5000, 40]             --
│    └─Linear: 2-8                                 [1, 5000, 1]              41
├─Identity: 1-7                                    [1, 5000, 1]              --
====================================================================================================
Total params: 420,113
Trainable params: 420,113
Non-trainable params: 0
Total mult-adds (M): 0.88
====================================================================================================
Input size (MB): 2.20
Forward/backward pass size (MB): 106.60
Params size (MB): 0.29
Estimated Total Size (MB): 109.09
…
