Using cuda
====================================================================================================
Layer (type:depth-idx)                             Output Shape              Param #
====================================================================================================
Transformer                                        [1, 100, 1]               --
├─Linear: 1-1                                      [1, 100, 32]              64
├─Time2Vec: 1-2                                    [1, 100, 36]              --
│    └─Linear: 2-1                                 [100, 4]                  8
├─Linear: 1-3                                      [1, 100, 32]              (recursive)
├─Time2Vec: 1-4                                    [1, 100, 36]              (recursive)
│    └─Linear: 2-2                                 [100, 4]                  (recursive)
├─Transformer: 1-5                                 [1, 100, 36]              --
│    └─TransformerEncoder: 2-3                     [1, 100, 36]              --
│    │    └─ModuleList: 3-1                        --                        7,844
│    │    └─LayerNorm: 3-2                         [1, 100, 36]              72
│    └─TransformerDecoder: 2-4                     [1, 100, 36]              --
│    │    └─ModuleList: 3-3                        --                        13,244
│    │    └─LayerNorm: 3-4                         [1, 100, 36]              72
├─Sequential: 1-6                                  [1, 100, 1]               --
│    └─Linear: 2-5                                 [1, 100, 18]              666
│    └─Dropout: 2-6                                [1, 100, 18]              --
│    └─ReLU: 2-7                                   [1, 100, 18]              --
│    └─Linear: 2-8                                 [1, 100, 1]               19
├─Identity: 1-7                                    [1, 100, 1]               --
====================================================================================================
Total params: 21,989
Trainable params: 21,989
Non-trainable params: 0
Total mult-adds (M): 0.01
====================================================================================================
Input size (MB): 0.00
Forward/backward pass size (MB): 0.27
Params size (MB): 0.01
Estimated Total Size (MB): 0.29
…
