Using cuda
====================================================================================================
Layer (type:depth-idx)                             Output Shape              Param #
====================================================================================================
Transformer                                        [1, 100, 1]               --
├─Linear: 1-1                                      [1, 100, 64]              3,584
├─Time2Vec: 1-2                                    [1, 100, 72]              --
│    └─Linear: 2-1                                 [100, 8]                  40
├─Linear: 1-3                                      [1, 100, 64]              (recursive)
├─Time2Vec: 1-4                                    [1, 100, 72]              (recursive)
│    └─Linear: 2-2                                 [100, 8]                  (recursive)
├─Transformer: 1-5                                 [1, 100, 72]              --
│    └─MyIdentity: 2-3                             [1, 100, 72]              --
│    └─TransformerDecoder: 2-4                     [1, 100, 72]              --
│    │    └─ModuleList: 3-1                        --                        310,992
│    │    └─LayerNorm: 3-2                         [1, 100, 72]              144
├─Sequential: 1-6                                  [1, 100, 1]               --
│    └─Linear: 2-5                                 [1, 100, 36]              2,628
│    └─Dropout: 2-6                                [1, 100, 36]              --
│    └─ReLU: 2-7                                   [1, 100, 36]              --
│    └─Linear: 2-8                                 [1, 100, 1]               37
├─Identity: 1-7                                    [1, 100, 1]               --
====================================================================================================
Total params: 317,425
Trainable params: 317,425
Non-trainable params: 0
Total mult-adds (M): 0.08
====================================================================================================
Input size (MB): 0.04
Forward/backward pass size (MB): 1.89
Params size (MB): 0.26
Estimated Total Size (MB): 2.20
…
