Using CPU
====================================================================================================
Layer (type:depth-idx)                             Output Shape              Param #
====================================================================================================
Transformer                                        [1, 200, 1]               --
├─Linear: 1-1                                      [1, 200, 256]             1,536
├─Linear: 1-2                                      [1, 200, 256]             (recursive)
├─Transformer: 1-3                                 [1, 200, 256]             --
│    └─TransformerEncoder: 2-1                     [1, 200, 256]             --
│    │    └─ModuleList: 3-1                        --                        791,552
│    │    └─LayerNorm: 3-2                         [1, 200, 256]             512
│    └─TransformerDecoder: 2-2                     [1, 200, 256]             --
│    │    └─ModuleList: 3-3                        --                        1,318,912
│    │    └─LayerNorm: 3-4                         [1, 200, 256]             512
├─Sequential: 1-4                                  [1, 200, 1]               --
│    └─Linear: 2-3                                 [1, 200, 256]             65,792
│    └─Dropout: 2-4                                [1, 200, 256]             --
│    └─ReLU: 2-5                                   [1, 200, 256]             --
│    └─Linear: 2-6                                 [1, 200, 128]             32,896
│    └─Dropout: 2-7                                [1, 200, 128]             --
│    └─ReLU: 2-8                                   [1, 200, 128]             --
│    └─Linear: 2-9                                 [1, 200, 1]               129
====================================================================================================
Total params: 2,211,841
Trainable params: 2,211,841
Non-trainable params: 0
Total mult-adds (Units.MEGABYTES): 0.63
====================================================================================================
Input size (MB): 0.01
Forward/backward pass size (MB): 9.63
Params size (MB): 2.53
…
