Using cuda
====================================================================================================
Layer (type:depth-idx)                             Output Shape              Param #
====================================================================================================
Transformer                                        [1, 200, 1]               --
├─Linear: 1-1                                      [1, 200, 64]              320
├─PositionalEncodingNLP: 1-2                       [1, 200, 64]              --
│    └─Dropout: 2-1                                [1, 200, 64]              --
├─Linear: 1-3                                      [1, 200, 64]              (recursive)
├─PositionalEncodingNLP: 1-4                       [1, 200, 64]              --
│    └─Dropout: 2-2                                [1, 200, 64]              --
├─Transformer: 1-5                                 [1, 200, 64]              --
│    └─TransformerEncoder: 2-3                     [1, 200, 64]              --
│    │    └─ModuleList: 3-1                        --                        50,432
│    │    └─LayerNorm: 3-2                         [1, 200, 64]              128
│    └─TransformerDecoder: 2-4                     [1, 200, 64]              --
│    │    └─ModuleList: 3-3                        --                        83,968
│    │    └─LayerNorm: 3-4                         [1, 200, 64]              128
├─Sequential: 1-6                                  [1, 200, 1]               --
│    └─Linear: 2-5                                 [1, 200, 32]              2,080
│    └─Dropout: 2-6                                [1, 200, 32]              --
│    └─ReLU: 2-7                                   [1, 200, 32]              --
│    └─Linear: 2-8                                 [1, 200, 1]               33
├─Identity: 1-7                                    [1, 200, 1]               --
====================================================================================================
Total params: 137,089
Trainable params: 137,089
Non-trainable params: 0
Total mult-adds (M): 0.02
====================================================================================================
Input size (MB): 0.01
Forward/backward pass size (MB): 1.49
Params size (MB): 0.08
Estimated Total Size (MB): 1.57
…
