Using cuda
====================================================================================================
Layer (type:depth-idx)                             Output Shape              Param #
====================================================================================================
Transformer                                        [1, 200, 1]               --
├─Linear: 1-1                                      [1, 200, 64]              2,368
├─Time2Vec: 1-2                                    [1, 200, 72]              --
│    └─Linear: 2-1                                 [200, 8]                  16
├─Linear: 1-3                                      [1, 200, 64]              (recursive)
├─Time2Vec: 1-4                                    [1, 200, 72]              (recursive)
│    └─Linear: 2-2                                 [200, 8]                  (recursive)
├─Transformer: 1-5                                 [1, 200, 72]              --
│    └─TransformerEncoder: 2-3                     [1, 200, 72]              --
│    │    └─ModuleList: 3-1                        --                        61,328
│    │    └─LayerNorm: 3-2                         [1, 200, 72]              144
│    └─TransformerDecoder: 2-4                     [1, 200, 72]              --
│    │    └─ModuleList: 3-3                        --                        103,664
│    │    └─LayerNorm: 3-4                         [1, 200, 72]              144
├─Sequential: 1-6                                  [1, 200, 1]               --
│    └─Linear: 2-5                                 [1, 200, 36]              2,628
│    └─Dropout: 2-6                                [1, 200, 36]              --
│    └─ReLU: 2-7                                   [1, 200, 36]              --
│    └─Linear: 2-8                                 [1, 200, 1]               37
├─Identity: 1-7                                    [1, 200, 1]               --
====================================================================================================
Total params: 170,329
Trainable params: 170,329
Non-trainable params: 0
Total mult-adds (M): 0.03
====================================================================================================
Input size (MB): 0.06
Forward/backward pass size (MB): 1.65
Params size (MB): 0.10
Estimated Total Size (MB): 1.80
…
