…
/home/ansysai/lkloker/transformersPDE/torch_leon/lib/python3.8/site-packages/torch/nn/modules/loss.py:536: UserWarning: Using a target size (torch.Size([1, 1])) that is different to the input size (torch.Size([1, 1932, 1])). This will likely lead to incorrect results due to broadcasting. Please ensure they have the same size.
  return F.mse_loss(input, target, reduction=self.reduction)
====================================================================================================
Layer (type:depth-idx)                             Output Shape              Param #
====================================================================================================
Transformer                                        [1, 200, 1]               --
├─Sequential: 1-1                                  [1, 200, 64]              --
│    └─Linear: 2-1                                 [1, 200, 64]              320
│    └─PositionalEncodingStandard: 2-2             [1, 200, 64]              --
├─Sequential: 1-2                                  [1, 200, 64]              (recursive)
│    └─Linear: 2-3                                 [1, 200, 64]              (recursive)
│    └─PositionalEncodingStandard: 2-4             [1, 200, 64]              --
├─Transformer: 1-3                                 [1, 200, 64]              --
│    └─MyIdentity: 2-5                             [1, 200, 64]              --
│    └─TransformerDecoder: 2-6                     [1, 200, 64]              --
│    │    └─ModuleList: 3-1                        --                        41,984
│    │    └─LayerNorm: 3-2                         [1, 200, 64]              128
├─Sequential: 1-4                                  [1, 200, 1]               --
│    └─Linear: 2-7                                 [1, 200, 32]              2,080
│    └─Dropout: 2-8                                [1, 200, 32]              --
│    └─ReLU: 2-9                                   [1, 200, 32]              --
│    └─Linear: 2-10                                [1, 200, 1]               33
====================================================================================================
Total params: 44,545
Trainable params: 44,545
Non-trainable params: 0
Total mult-adds (M): 0.01
====================================================================================================
Input size (MB): 0.01
Forward/backward pass size (MB): 0.87
Params size (MB): 0.05
Estimated Total Size (MB): 0.92
…
/home/ansysai/lkloker/transformersPDE/torch_leon/lib/python3.8/site-packages/torch/nn/modules/activation.py:1160: UserWarning: Converting mask without torch.bool dtype to bool; this will negatively affect performance. Prefer to use a boolean mask directly. (Triggered internally at ../aten/src/ATen/native/transformers/attention.cpp:150.)
  return torch._native_multi_head_attention(
====================================================================================================
Layer (type:depth-idx)                             Output Shape              Param #
====================================================================================================
Transformer                                        [1, 200, 1]               --
├─Sequential: 1-1                                  [1, 200, 64]              --
│    └─Linear: 2-1                                 [1, 200, 64]              320
│    └─PositionalEncodingStandard: 2-2             [1, 200, 64]              --
├─Sequential: 1-2                                  [1, 200, 64]              (recursive)
│    └─Linear: 2-3                                 [1, 200, 64]              (recursive)
│    └─PositionalEncodingStandard: 2-4             [1, 200, 64]              --
├─Transformer: 1-3                                 [1, 200, 64]              --
│    └─MyIdentity: 2-5                             [1, 200, 64]              --
│    └─TransformerDecoder: 2-6                     [1, 200, 64]              --
│    │    └─ModuleList: 3-1                        --                        41,984
│    │    └─LayerNorm: 3-2                         [1, 200, 64]              128
├─Sequential: 1-4                                  [1, 200, 1]               --
│    └─Linear: 2-7                                 [1, 200, 32]              2,080
│    └─Dropout: 2-8                                [1, 200, 32]              --
│    └─ReLU: 2-9                                   [1, 200, 32]              --
│    └─Linear: 2-10                                [1, 200, 1]               33
├─Sigmoid: 1-5                                     [1, 200, 1]               --
====================================================================================================
Total params: 44,545
Trainable params: 44,545
Non-trainable params: 0
Total mult-adds (M): 0.01
====================================================================================================
Input size (MB): 0.01
Forward/backward pass size (MB): 0.87
Params size (MB): 0.05
Estimated Total Size (MB): 0.92
…
/home/ansysai/lkloker/transformersPDE/torch_leon/lib/python3.8/site-packages/torch/nn/modules/activation.py:1160: UserWarning: Converting mask without torch.bool dtype to bool; this will negatively affect performance. Prefer to use a boolean mask directly. (Triggered internally at ../aten/src/ATen/native/transformers/attention.cpp:150.)
  return torch._native_multi_head_attention(
====================================================================================================
Layer (type:depth-idx)                             Output Shape              Param #
====================================================================================================
Transformer                                        [1, 200, 1]               --
├─Sequential: 1-1                                  [1, 200, 64]              --
│    └─Linear: 2-1                                 [1, 200, 64]              320
│    └─PositionalEncodingNLP: 2-2                  [1, 200, 64]              --
│    │    └─Dropout: 3-1                           [1, 200, 64]              --
├─Sequential: 1-2                                  [1, 200, 64]              (recursive)
│    └─Linear: 2-3                                 [1, 200, 64]              (recursive)
│    └─PositionalEncodingNLP: 2-4                  [1, 200, 64]              --
│    │    └─Dropout: 3-2                           [1, 200, 64]              --
├─Transformer: 1-3                                 [1, 200, 64]              --
│    └─TransformerEncoder: 2-5                     [1, 200, 64]              --
│    │    └─ModuleList: 3-3                        --                        50,432
│    │    └─LayerNorm: 3-4                         [1, 200, 64]              128
│    └─TransformerDecoder: 2-6                     [1, 200, 64]              --
│    │    └─ModuleList: 3-5                        --                        83,968
│    │    └─LayerNorm: 3-6                         [1, 200, 64]              128
├─Sequential: 1-4                                  [1, 200, 1]               --
│    └─Linear: 2-7                                 [1, 200, 32]              2,080
│    └─Dropout: 2-8                                [1, 200, 32]              --
│    └─ReLU: 2-9                                   [1, 200, 32]              --
│    └─Linear: 2-10                                [1, 200, 1]               33
├─Sigmoid: 1-5                                     [1, 200, 1]               --
====================================================================================================
Total params: 137,089
Trainable params: 137,089
Non-trainable params: 0
Total mult-adds (M): 0.02
====================================================================================================
Input size (MB): 0.01
Forward/backward pass size (MB): 1.49
Params size (MB): 0.08
Estimated Total Size (MB): 1.57
…
/home/ansysai/lkloker/transformersPDE/torch_leon/lib/python3.8/site-packages/torch/nn/modules/activation.py:1160: UserWarning: Converting mask without torch.bool dtype to bool; this will negatively affect performance. Prefer to use a boolean mask directly. (Triggered internally at ../aten/src/ATen/native/transformers/attention.cpp:150.)
  return torch._native_multi_head_attention(
====================================================================================================
Layer (type:depth-idx)                             Output Shape              Param #
====================================================================================================
Transformer                                        [1, 200, 1]               --
├─Sequential: 1-1                                  [1, 200, 64]              --
│    └─Linear: 2-1                                 [1, 200, 64]              320
│    └─PositionalEncodingLearned: 2-2              [1, 200, 64]              --
│    │    └─Sequential: 3-1                        [15000, 64]               8,320
│    │    └─Dropout: 3-2                           [1, 200, 64]              --
├─Sequential: 1-2                                  [1, 200, 64]              (recursive)
│    └─Linear: 2-3                                 [1, 200, 64]              (recursive)
│    └─PositionalEncodingLearned: 2-4              [1, 200, 64]              (recursive)
│    │    └─Sequential: 3-3                        [15000, 64]               (recursive)
│    │    └─Dropout: 3-4                           [1, 200, 64]              --
├─Transformer: 1-3                                 [1, 200, 64]              --
│    └─TransformerEncoder: 2-5                     [1, 200, 64]              --
│    │    └─ModuleList: 3-5                        --                        50,432
│    │    └─LayerNorm: 3-6                         [1, 200, 64]              128
│    └─TransformerDecoder: 2-6                     [1, 200, 64]              --
│    │    └─ModuleList: 3-7                        --                        83,968
│    │    └─LayerNorm: 3-8                         [1, 200, 64]              128
├─Sequential: 1-4                                  [1, 200, 1]               --
│    └─Linear: 2-7                                 [1, 200, 32]              2,080
│    └─Dropout: 2-8                                [1, 200, 32]              --
│    └─ReLU: 2-9                                   [1, 200, 32]              --
│    └─Linear: 2-10                                [1, 200, 1]               33
├─Identity: 1-5                                    [1, 200, 1]               --
====================================================================================================
Total params: 145,409
Trainable params: 145,409
Non-trainable params: 0
Total mult-adds (M): 249.62
====================================================================================================
Input size (MB): 0.01
Forward/backward pass size (MB): 32.21
Params size (MB): 0.11
Estimated Total Size (MB): 32.33
…
/home/ansysai/lkloker/transformersPDE/torch_leon/lib/python3.8/site-packages/torch/nn/modules/activation.py:1160: UserWarning: Converting mask without torch.bool dtype to bool; this will negatively affect performance. Prefer to use a boolean mask directly. (Triggered internally at ../aten/src/ATen/native/transformers/attention.cpp:150.)
  return torch._native_multi_head_attention(
====================================================================================================
Layer (type:depth-idx)                             Output Shape              Param #
====================================================================================================
Transformer                                        [1, 200, 1]               --
├─Linear: 1-1                                      [1, 200, 64]              320
├─PositionalEncodingNLP: 1-2                       [1, 200, 64]              --
│    └─Dropout: 2-1                                [1, 200, 64]              --
├─Linear: 1-3                                      [1, 200, 64]              (recursive)
├─PositionalEncodingNLP: 1-4                       [1, 200, 64]              --
│    └─Dropout: 2-2                                [1, 200, 64]              --
├─Transformer: 1-5                                 [1, 200, 64]              --
│    └─TransformerEncoder: 2-3                     [1, 200, 64]              --
│    │    └─ModuleList: 3-1                        --                        50,432
│    │    └─LayerNorm: 3-2                         [1, 200, 64]              128
│    └─TransformerDecoder: 2-4                     [1, 200, 64]              --
│    │    └─ModuleList: 3-3                        --                        83,968
│    │    └─LayerNorm: 3-4                         [1, 200, 64]              128
├─Sequential: 1-6                                  [1, 200, 1]               --
│    └─Linear: 2-5                                 [1, 200, 32]              2,080
│    └─Dropout: 2-6                                [1, 200, 32]              --
│    └─ReLU: 2-7                                   [1, 200, 32]              --
│    └─Linear: 2-8                                 [1, 200, 1]               33
├─Identity: 1-7                                    [1, 200, 1]               --
====================================================================================================
Total params: 137,089
Trainable params: 137,089
Non-trainable params: 0
Total mult-adds (M): 0.02
====================================================================================================
Input size (MB): 0.01
Forward/backward pass size (MB): 1.49
Params size (MB): 0.08
Estimated Total Size (MB): 1.57
…
/home/ansysai/lkloker/transformersPDE/torch_leon/lib/python3.8/site-packages/torch/nn/modules/activation.py:1160: UserWarning: Converting mask without torch.bool dtype to bool; this will negatively affect performance. Prefer to use a boolean mask directly. (Triggered internally at ../aten/src/ATen/native/transformers/attention.cpp:150.)
  return torch._native_multi_head_attention(
====================================================================================================
Layer (type:depth-idx)                             Output Shape              Param #
====================================================================================================
Transformer                                        [1, 200, 1]               --
├─Linear: 1-1                                      [1, 200, 64]              320
├─Time2Vec: 1-2                                    [1, 200, 68]              --
│    └─Linear: 2-1                                 [200, 4]                  8
├─Linear: 1-3                                      [1, 200, 64]              (recursive)
├─Time2Vec: 1-4                                    [1, 200, 68]              (recursive)
│    └─Linear: 2-2                                 [200, 4]                  (recursive)
├─Transformer: 1-5                                 [1, 200, 68]              --
│    └─TransformerEncoder: 2-3                     [1, 200, 68]              --
│    │    └─ModuleList: 3-1                        --                        139,380
│    │    └─LayerNorm: 3-2                         [1, 200, 68]              136
│    └─TransformerDecoder: 2-4                     [1, 200, 68]              --
│    │    └─ModuleList: 3-3                        --                        233,900
│    │    └─LayerNorm: 3-4                         [1, 200, 68]              136
├─Sequential: 1-6                                  [1, 200, 1]               --
│    └─Linear: 2-5                                 [1, 200, 34]              2,346
│    └─Dropout: 2-6                                [1, 200, 34]              --
│    └─ReLU: 2-7                                   [1, 200, 34]              --
│    └─Linear: 2-8                                 [1, 200, 1]               35
├─Identity: 1-7                                    [1, 200, 1]               --
====================================================================================================
Total params: 376,261
Trainable params: 376,261
Non-trainable params: 0
Total mult-adds (M): 0.05
====================================================================================================
Input size (MB): 0.01
Forward/backward pass size (MB): 3.18
Params size (MB): 0.20
Estimated Total Size (MB): 3.38
…
/home/ansysai/lkloker/transformersPDE/torch_leon/lib/python3.8/site-packages/torch/nn/modules/activation.py:1160: UserWarning: Converting mask without torch.bool dtype to bool; this will negatively affect performance. Prefer to use a boolean mask directly. (Triggered internally at ../aten/src/ATen/native/transformers/attention.cpp:150.)
  return torch._native_multi_head_attention(
====================================================================================================
Layer (type:depth-idx)                             Output Shape              Param #
====================================================================================================
Transformer                                        [1, 200, 1]               --
├─Linear: 1-1                                      [1, 200, 64]              2,368
├─Time2Vec: 1-2                                    [1, 200, 68]              --
│    └─Linear: 2-1                                 [200, 4]                  8
├─Linear: 1-3                                      [1, 200, 64]              (recursive)
├─Time2Vec: 1-4                                    [1, 200, 68]              (recursive)
│    └─Linear: 2-2                                 [200, 4]                  (recursive)
├─Transformer: 1-5                                 [1, 200, 68]              --
│    └─TransformerEncoder: 2-3                     [1, 200, 68]              --
│    │    └─ModuleList: 3-1                        --                        55,752
│    │    └─LayerNorm: 3-2                         [1, 200, 68]              136
│    └─TransformerDecoder: 2-4                     [1, 200, 68]              --
│    │    └─ModuleList: 3-3                        --                        93,560
│    │    └─LayerNorm: 3-4                         [1, 200, 68]              136
├─Sequential: 1-6                                  [1, 200, 1]               --
│    └─Linear: 2-5                                 [1, 200, 34]              2,346
│    └─Dropout: 2-6                                [1, 200, 34]              --
│    └─ReLU: 2-7                                   [1, 200, 34]              --
│    └─Linear: 2-8                                 [1, 200, 1]               35
├─Identity: 1-7                                    [1, 200, 1]               --
====================================================================================================
Total params: 154,341
Trainable params: 154,341
Non-trainable params: 0
Total mult-adds (M): 0.03
====================================================================================================
Input size (MB): 0.06
Forward/backward pass size (MB): 1.57
Params size (MB): 0.09
Estimated Total Size (MB): 1.72
…
