…
/home/ansysai/lkloker/transformersPDE/torch_leon/lib/python3.8/site-packages/torch/nn/modules/activation.py:1160: UserWarning: Converting mask without torch.bool dtype to bool; this will negatively affect performance. Prefer to use a boolean mask directly. (Triggered internally at ../aten/src/ATen/native/transformers/attention.cpp:150.)
  return torch._native_multi_head_attention(
====================================================================================================
Layer (type:depth-idx)                             Output Shape              Param #
====================================================================================================
Transformer                                        [1, 200, 1]               --
├─Linear: 1-1                                      [1, 200, 64]              2,368
├─Time2Vec: 1-2                                    [1, 200, 72]              --
│    └─Linear: 2-1                                 [200, 8]                  16
├─Linear: 1-3                                      [1, 200, 64]              (recursive)
├─Time2Vec: 1-4                                    [1, 200, 72]              (recursive)
│    └─Linear: 2-2                                 [200, 8]                  (recursive)
├─Transformer: 1-5                                 [1, 200, 72]              --
│    └─TransformerEncoder: 2-3                     [1, 200, 72]              --
│    │    └─ModuleList: 3-1                        --                        91,992
│    │    └─LayerNorm: 3-2                         [1, 200, 72]              144
│    └─TransformerDecoder: 2-4                     [1, 200, 72]              --
│    │    └─ModuleList: 3-3                        --                        155,496
│    │    └─LayerNorm: 3-4                         [1, 200, 72]              144
├─Sequential: 1-6                                  [1, 200, 1]               --
│    └─Linear: 2-5                                 [1, 200, 36]              2,628
│    └─Dropout: 2-6                                [1, 200, 36]              --
│    └─ReLU: 2-7                                   [1, 200, 36]              --
│    └─Linear: 2-8                                 [1, 200, 1]               37
├─Identity: 1-7                                    [1, 200, 1]               --
====================================================================================================
Total params: 252,825
Trainable params: 252,825
Non-trainable params: 0
Total mult-adds (M): 0.04
====================================================================================================
Input size (MB): 0.06
Forward/backward pass size (MB): 2.21
Params size (MB): 0.14
Estimated Total Size (MB): 2.41
…
