…
/home/ansysai/lkloker/transformersPDE/torch_leon/lib/python3.8/site-packages/torch/nn/modules/loss.py:536: UserWarning: Using a target size (torch.Size([1, 1])) that is different to the input size (torch.Size([1, 1932, 1])). This will likely lead to incorrect results due to broadcasting. Please ensure they have the same size.
  return F.mse_loss(input, target, reduction=self.reduction)
====================================================================================================
Layer (type:depth-idx)                             Output Shape              Param #
====================================================================================================
Transformer                                        [1, 200, 1]               --
├─Sequential: 1-1                                  [1, 200, 64]              --
│    └─Linear: 2-1                                 [1, 200, 64]              320
│    └─PositionalEncodingStandard: 2-2             [1, 200, 64]              --
├─Sequential: 1-2                                  [1, 200, 64]              (recursive)
│    └─Linear: 2-3                                 [1, 200, 64]              (recursive)
│    └─PositionalEncodingStandard: 2-4             [1, 200, 64]              --
├─Transformer: 1-3                                 [1, 200, 64]              --
│    └─MyIdentity: 2-5                             [1, 200, 64]              --
│    └─TransformerDecoder: 2-6                     [1, 200, 64]              --
│    │    └─ModuleList: 3-1                        --                        41,984
│    │    └─LayerNorm: 3-2                         [1, 200, 64]              128
├─Sequential: 1-4                                  [1, 200, 1]               --
│    └─Linear: 2-7                                 [1, 200, 32]              2,080
│    └─Dropout: 2-8                                [1, 200, 32]              --
│    └─ReLU: 2-9                                   [1, 200, 32]              --
│    └─Linear: 2-10                                [1, 200, 1]               33
====================================================================================================
Total params: 44,545
Trainable params: 44,545
Non-trainable params: 0
Total mult-adds (M): 0.01
====================================================================================================
Input size (MB): 0.01
Forward/backward pass size (MB): 0.87
Params size (MB): 0.05
Estimated Total Size (MB): 0.92
…
/home/ansysai/lkloker/transformersPDE/torch_leon/lib/python3.8/site-packages/torch/nn/modules/activation.py:1160: UserWarning: Converting mask without torch.bool dtype to bool; this will negatively affect performance. Prefer to use a boolean mask directly. (Triggered internally at ../aten/src/ATen/native/transformers/attention.cpp:150.)
  return torch._native_multi_head_attention(
====================================================================================================
Layer (type:depth-idx)                             Output Shape              Param #
====================================================================================================
Transformer                                        [1, 200, 1]               --
├─Sequential: 1-1                                  [1, 200, 64]              --
│    └─Linear: 2-1                                 [1, 200, 64]              320
│    └─PositionalEncodingStandard: 2-2             [1, 200, 64]              --
├─Sequential: 1-2                                  [1, 200, 64]              (recursive)
│    └─Linear: 2-3                                 [1, 200, 64]              (recursive)
│    └─PositionalEncodingStandard: 2-4             [1, 200, 64]              --
├─Transformer: 1-3                                 [1, 200, 64]              --
│    └─MyIdentity: 2-5                             [1, 200, 64]              --
│    └─TransformerDecoder: 2-6                     [1, 200, 64]              --
│    │    └─ModuleList: 3-1                        --                        41,984
│    │    └─LayerNorm: 3-2                         [1, 200, 64]              128
├─Sequential: 1-4                                  [1, 200, 1]               --
│    └─Linear: 2-7                                 [1, 200, 32]              2,080
│    └─Dropout: 2-8                                [1, 200, 32]              --
│    └─ReLU: 2-9                                   [1, 200, 32]              --
│    └─Linear: 2-10                                [1, 200, 1]               33
├─Sigmoid: 1-5                                     [1, 200, 1]               --
====================================================================================================
Total params: 44,545
Trainable params: 44,545
Non-trainable params: 0
Total mult-adds (M): 0.01
====================================================================================================
Input size (MB): 0.01
Forward/backward pass size (MB): 0.87
Params size (MB): 0.05
Estimated Total Size (MB): 0.92
…
